weights_model.pth (torch, 2625 bytes, 6 tensors)

hidden1.weight f4 [6, 4]
0	0x3f216897	0.63050216
1	0xbeb55058	-0.3541286
2	0xbf2174ce	-0.63068855
3	0x3eb08ad3	0.34480914
4	0x3d4ec9fc	0.050485596
5	0xbddd2a09	-0.10799033
6	0xbd8b4ae3	-0.06801393
7	0x3e71b871	0.23605515
8	0x3ea42f86	0.32067508
9	0x3ec04e8e	0.37559932
10	0xbea71bf4	-0.32638514
11	0xbec6da30	-0.3883834
12	0xbf36310d	-0.71168596
13	0xbe9f2eeb	-0.31090483
14	0x3f3715bd	0.71517545
15	0x3ea02675	0.3127934
16	0xbe5cbe3c	-0.21556944
17	0xbf382c61	-0.71942717
18	0x3e617b09	0.2201959
19	0x3f39a086	0.72510564
20	0x3e1503e7	0.1455227
21	0x3f1063eb	0.5640246
22	0xbe073dc3	-0.13207154
23	0xbf173431	-0.5906401

hidden1.bias f4 [6]
0	0x3f6e5771	0.93102175
1	0x3f0f4080	0.55957794
2	0x3fc28da4	1.5199475
3	0x3f1787ee	0.5919179
4	0x3f43c5c2	0.7647363
5	0x3fa197cc	1.262445

hidden2.weight f4 [6, 6]
0	0x3dcfd0dc	0.10147259
1	0x3ea6e075	0.32593122
2	0xbe1dbe1c	-0.15404552
3	0x3e709238	0.23493278
4	0x3dc59e44	0.096493274
5	0xbf925302	-1.1431582
6	0x3ea97730	0.33098745
7	0xbd5f8ad6	-0.054575764
8	0xbc89e232	-0.016831491
9	0x3e625538	0.22102821
10	0x3f81470c	1.0099807
11	0x3d59e9bb	0.05320142
12	0x3fba2e7e	1.4545438
13	0x3e605639	0.21907891
14	0x3e7f595f	0.24936436
15	0xbf4094d1	-0.75227076
16	0x3d7f82e9	0.062380705
17	0x3e0069ea	0.12540403
18	0xbe0037b1	-0.12521245
19	0xbd024457	-0.031803455
20	0xbeb0420d	-0.34425393
21	0x3e577157	0.2103933
22	0xbe121fa1	-0.14269878
23	0xbe5c78bf	-0.21530436
24	0xbf1bc45e	-0.6084651
25	0x3e94664c	0.28984296
26	0x3f26f00d	0.6521004
27	0xbea57753	-0.323176
28	0xbf7b1790	-0.9808283
29	0x3f77624b	0.9663436
30	0xbf2bcf58	-0.67113256
31	0x3e3659f9	0.1780776
32	0xbdae20c7	-0.085023455
33	0x3f648444	0.8926432
34	0x3f350a0b	0.7071845
35	0x3defa477	0.11701291

hidden2.bias f4 [6]
0	0x3c7f6ce8	0.01558993
1	0x3e8ca9d2	0.27473313
2	0xbea2dd87	-0.31809637
3	0x3e8bc6f6	0.27300233
4	0x3f31c8ef	0.69447225
5	0x3f56b769	0.8387361

output.weight f4 [4, 6]
0	0xbe7dc960	-0.2478385
1	0xbd7985d3	-0.06091864
2	0x3f848705	1.0353705
3	0xbe1248db	-0.14285605
4	0xbdce8781	-0.10084439
5	0xbf404bc6	-0.7511562
6	0x3b9e586d	0.0048323185
7	0x3f116a2b	0.56802624
8	0x3ec68b28	0.38778043
9	0x3dafc82f	0.08583104
10	0xbfc8d17c	-1.568893
11	0x3f0f0c55	0.5587819
12	0xbd860c6b	-0.06545337
13	0x3e40d277	0.18830286
14	0xbfacd61b	-1.350284
15	0xbcd6a5f6	-0.026202183
16	0xbe1fe5a2	-0.15614942
17	0x3f5b6a16	0.8570875
18	0xbecac781	-0.39605334
19	0xbee8b83c	-0.4545306
20	0xbf0691d2	-0.52566254
21	0x3c911cd3	0.01771394
22	0x3f69409e	0.91114223
23	0xbe8ec246	-0.27882594

output.bias f4 [4]
0	0xbe8eac64	-0.278659
1	0xbe8bd115	-0.27307954
2	0x3e81e0df	0.25366876
3	0xbde4cfd0	-0.111724496
